['daisy', 'sunflower', 'rose', 'dandelion', 'tulip']
749
1463
2427
3459
4223
Model: "sequential"
_________________________________________________________________
Layer (type)                 Output Shape              Param #   
=================================================================
conv2d (Conv2D)              (None, 150, 150, 32)      2432      
_________________________________________________________________
max_pooling2d (MaxPooling2D) (None, 75, 75, 32)        0         
_________________________________________________________________
dropout (Dropout)            (None, 75, 75, 32)        0         
_________________________________________________________________
conv2d_1 (Conv2D)            (None, 75, 75, 64)        18496     
_________________________________________________________________
max_pooling2d_1 (MaxPooling2 (None, 37, 37, 64)        0         
_________________________________________________________________
dropout_1 (Dropout)          (None, 37, 37, 64)        0         
_________________________________________________________________
conv2d_2 (Conv2D)            (None, 37, 37, 96)        55392     
_________________________________________________________________
max_pooling2d_2 (MaxPooling2 (None, 18, 18, 96)        0         
_________________________________________________________________
dropout_2 (Dropout)          (None, 18, 18, 96)        0         
_________________________________________________________________
conv2d_3 (Conv2D)            (None, 18, 18, 96)        83040     
_________________________________________________________________
max_pooling2d_3 (MaxPooling2 (None, 9, 9, 96)          0         
_________________________________________________________________
dropout_3 (Dropout)          (None, 9, 9, 96)          0         
_________________________________________________________________
flatten (Flatten)            (None, 7776)              0         
_________________________________________________________________
dense (Dense)                (None, 512)               3981824   
_________________________________________________________________
activation (Activation)      (None, 512)               0         
_________________________________________________________________
dense_1 (Dense)              (None, 5)                 2565      
=================================================================
Total params: 4,143,749
Trainable params: 4,143,749
Non-trainable params: 0
_________________________________________________________________
Epoch 1/50
 1/26 [>.............................] - ETA: 1:19 - loss: 1.6080 - acc: 0.2578 2/26 [=>.....
…
